…
python: can't open file '/Users/vedanshi/Documents/GitHub/practical-ml-project-2/main/tPatchGNN/tPatchGNN/run_sample.py': [Errno 2] No such file or directory
PID, device: 85725 cpu
Experiment ID: 48851
/opt/anaconda3/envs/test_env/lib/python3.9/site-packages/torch/nn/modules/transformer.py:385: UserWarning: enable_nested_tensor is True, but self.use_nested_tensor is False because encoder_layer.self_attn.num_heads is odd
  warnings.warn(
Total records: 23457
Dataset n_samples: 23457 14073 4692 4692
Test record ids (first 20): [… Test record ids (last 20): [… data_max: tensor([… )
data_min: tensor([… )
time_max: tensor(2879.7668)
tPatchGNN(
  (te_scale): Linear(in_features=1, out_features=1, bias=True)
  (te_periodic): Linear(in_features=1, out_features=9, bias=True)
  (Filter_Generators): Sequential(
    (0): Linear(in_features=11, out_features=63, bias=True)
    (1): ReLU(inplace=True)
    (2): Linear(in_features=63, out_features=63, bias=True)
    (3): ReLU(inplace=True)
    (4): Linear(in_features=63, out_features=693, bias=True)
  )
  (ADD_PE): PositionalEncoding()
  (transformer_encoder): ModuleList(
    (0): TransformerEncoder(
      (layers): ModuleList(
        (0): TransformerEncoderLayer(
          (self_attn): MultiheadAttention(
            (out_proj): NonDynamicallyQuantizableLinear(in_features=64, out_features=64, bias=True)
          )
          (linear1): Linear(in_features=64, out_features=2048, bias=True)
          (dropout): Dropout(p=0.1, inplace=False)
          (linear2): Linear(in_features=2048, out_features=64, bias=True)
          (norm1): LayerNorm((64,), eps=1e-05, elementwise_affine=True)
          (norm2): LayerNorm((64,), eps=1e-05, elementwise_affine=True)
          (dropout1): Dropout(p=0.1, inplace=False)
          (dropout2): Dropout(p=0.1, inplace=False)
        )
      )
    )
  )
  (nodevec_linear1): ModuleList(
    (0): Linear(in_features=64, out_features=10, bias=True)
  )
  (nodevec_linear2): ModuleList(
    (0): Linear(in_features=64, out_features=10, bias=True)
  )
  (nodevec_gate1): ModuleList(
    (0): Sequential(
      (0): Linear(in_features=74, out_features=1, bias=True)
      (1): Tanh()
      (2): ReLU()
    )
  )
  (nodevec_gate2): ModuleList(
    (0): Sequential(
      (0): Linear(in_features=74, out_features=1, bias=True)
      (1): Tanh()
      (2): ReLU()
    )
  )
  (gconv): ModuleList(
    (0): gcn(
      (nconv): nconv()
      (mlp): linear(
        (mlp): Conv2d(128, 64, kernel_size=(1, 1), stride=(1, 1))
      )
    )
  )
  (temporal_agg): Sequential(
    (0): Linear(in_features=192, out_features=64, bias=True)
  )
  (decoder): Sequential(
    (0): Linear(in_features=74, out_features=64, bias=True)
    (1): ReLU(inplace=True)
    (2): Linear(in_features=64, out_features=64, bias=True)
    (3): ReLU(inplace=True)
    (4): Linear(in_features=64, out_features=1, bias=True)
  )
)
/Users/vedanshi/Documents/GitHub/practical-ml-project-2/main/tPatchGNN/tPatchGNN/run_samples.py
2025-03-28 13:40:11
run_samples.py
Namespace(state='def', n=100000000, hop=1, nhead=1, tf_layer=1, nlayer=1, epoch=1000, patience=10, history=24, patch_size=8.0, stride=8.0, logmode='a', lr=0.001, w_decay=0.0, batch_size=1, save='experiments/', load=None, seed=1, dataset='mimic', quantization=0.0, model='tPatchGNN', outlayer='Linear', hid_dim=64, te_dim=10, node_dim=10, gpu='0', npatch=3, device=device(type='cuda'), PID=65027, ndim=96)
…
